…
                                         image_paths labels
0  ./animal-faces/afhq/train/cat/pixabay_cat_0027...    cat
1  ./animal-faces/afhq/train/cat/flickr_cat_00056...    cat
2  ./animal-faces/afhq/train/cat/pixabay_cat_0013...    cat
3  ./animal-faces/afhq/train/cat/pixabay_cat_0003...    cat
4  ./animal-faces/afhq/train/cat/pixabay_cat_0025...    cat
Image grid saved as 'image_grid.png'
----------------------------------------------------------------
        Layer (type)               Output Shape         Param #
================================================================
            Conv2d-1         [-1, 32, 128, 128]             896
         MaxPool2d-2           [-1, 32, 64, 64]               0
              ReLU-3           [-1, 32, 64, 64]               0
            Conv2d-4           [-1, 64, 64, 64]          18,496
         MaxPool2d-5           [-1, 64, 32, 32]               0
              ReLU-6           [-1, 64, 32, 32]               0
            Conv2d-7          [-1, 128, 32, 32]          73,856
         MaxPool2d-8          [-1, 128, 16, 16]               0
              ReLU-9          [-1, 128, 16, 16]               0
          Flatten-10                [-1, 32768]               0
           Linear-11                  [-1, 128]       4,194,432
           Linear-12                    [-1, 3]             387
================================================================
Total params: 4,288,067
Trainable params: 4,288,067
Non-trainable params: 0
----------------------------------------------------------------
Input size (MB): 0.19
Forward/backward pass size (MB): 10.75
Params size (MB): 16.36
Estimated Total Size (MB): 27.30
----------------------------------------------------------------
Epoch 1/10, Train Loss: 3.3824 Train Accuracy 80.1966
…
